Model
Model: "sequential_37"
________________________________________________________________________________
Layer (type)                        Output Shape                    Param #     
================================================================================
conv2d_109 (Conv2D)                 (None, 62, 62, 32)              896         
________________________________________________________________________________
max_pooling2d_74 (MaxPooling2D)     (None, 31, 31, 32)              0           
________________________________________________________________________________
conv2d_108 (Conv2D)                 (None, 29, 29, 64)              18496       
________________________________________________________________________________
max_pooling2d_73 (MaxPooling2D)     (None, 14, 14, 64)              0           
________________________________________________________________________________
conv2d_107 (Conv2D)                 (None, 12, 12, 128)             73856       
________________________________________________________________________________
max_pooling2d_72 (MaxPooling2D)     (None, 6, 6, 128)               0           
________________________________________________________________________________
conv2d_106 (Conv2D)                 (None, 4, 4, 128)               147584      
________________________________________________________________________________
max_pooling2d_71 (MaxPooling2D)     (None, 2, 2, 128)               0           
________________________________________________________________________________
flatten_1 (Flatten)                 (None, 512)                     0           
________________________________________________________________________________
dense_3 (Dense)                     (None, 512)                     262656      
________________________________________________________________________________
dense_2 (Dense)                     (None, 1)                       513         
================================================================================
Total params: 504,001
Trainable params: 504,001
Non-trainable params: 0
________________________________________________________________________________


