Model
Model: "sequential"
________________________________________________________________________________
Layer (type)                        Output Shape                    Param #     
================================================================================
conv2d_3 (Conv2D)                   (None, 62, 62, 32)              896         
________________________________________________________________________________
max_pooling2d_3 (MaxPooling2D)      (None, 31, 31, 32)              0           
________________________________________________________________________________
conv2d_2 (Conv2D)                   (None, 29, 29, 64)              18496       
________________________________________________________________________________
max_pooling2d_2 (MaxPooling2D)      (None, 14, 14, 64)              0           
________________________________________________________________________________
conv2d_1 (Conv2D)                   (None, 12, 12, 128)             73856       
________________________________________________________________________________
max_pooling2d_1 (MaxPooling2D)      (None, 6, 6, 128)               0           
________________________________________________________________________________
conv2d (Conv2D)                     (None, 4, 4, 128)               147584      
________________________________________________________________________________
max_pooling2d (MaxPooling2D)        (None, 2, 2, 128)               0           
________________________________________________________________________________
flatten (Flatten)                   (None, 512)                     0           
________________________________________________________________________________
dense_1 (Dense)                     (None, 512)                     262656      
________________________________________________________________________________
dense (Dense)                       (None, 1)                       513         
================================================================================
Total params: 504,001
Trainable params: 504,001
Non-trainable params: 0
________________________________________________________________________________


